…
/home/cs4li/tensorflow/lib/python3.5/site-packages/h5py/__init__.py:36: FutureWarning: Conversion of the second argument of issubdtype from `float` to `np.floating` is deprecated. In future, it will be treated as `np.float64 == np.dtype(float).type`.
  from ._conv import register_converters as _register_converters
Using TensorFlow backend.
train data shape: (50000, 32, 32, 3)
(50000, 32, 32, 3) train samples
_________________________________________________________________
Layer (type)                 Output Shape              Param #   
=================================================================
conv2d_1 (Conv2D)            (None, 32, 32, 20)        560       
_________________________________________________________________
max_pooling2d_1 (MaxPooling2 (None, 16, 16, 20)        0         
_________________________________________________________________
dropout_1 (Dropout)          (None, 16, 16, 20)        0         
_________________________________________________________________
conv2d_2 (Conv2D)            (None, 16, 16, 50)        9050      
_________________________________________________________________
max_pooling2d_2 (MaxPooling2 (None, 8, 8, 50)          0         
_________________________________________________________________
dropout_2 (Dropout)          (None, 8, 8, 50)          0         
_________________________________________________________________
conv2d_3 (Conv2D)            (None, 6, 6, 100)         45100     
_________________________________________________________________
max_pooling2d_3 (MaxPooling2 (None, 3, 3, 100)         0         
_________________________________________________________________
dropout_3 (Dropout)          (None, 3, 3, 100)         0         
_________________________________________________________________
flatten_1 (Flatten)          (None, 900)               0         
_________________________________________________________________
dense_1 (Dense)              (None, 512)               461312    
_________________________________________________________________
dropout_4 (Dropout)          (None, 512)               0         
_________________________________________________________________
dense_2 (Dense)              (None, 100)               51300     
=================================================================
Total params: 567,322
Trainable params: 567,322
Non-trainable params: 0
_________________________________________________________________
Epoch 1/100
2018-02-14 15:24:44.520609: I tensorflow/core/platform/cpu_feature_guard.cc:137] Your CPU supports instructions that this TensorFlow binary was not compiled to use: SSE4.1 SSE4.2 AVX AVX2 FMA
…
