…
/python3.5/site-packages/h5py/__init__.py:36: FutureWarning: Conversion of the second argument of issubdtype from `float` to `np.floating` is deprecated. In future, it will be treated as `np.float64 == np.dtype(float).type`.
  from ._conv import register_converters as _register_converters
Using TensorFlow backend.
train data shape: (50000, 32, 32, 3)
50000 train samples
_________________________________________________________________
Layer (type)                 Output Shape              Param #   
=================================================================
conv2d_1 (Conv2D)            (None, 32, 32, 300)       8400      
_________________________________________________________________
dropout_1 (Dropout)          (None, 32, 32, 300)       0         
_________________________________________________________________
max_pooling2d_1 (MaxPooling2 (None, 16, 16, 300)       0         
_________________________________________________________________
conv2d_2 (Conv2D)            (None, 16, 16, 600)       720600    
_________________________________________________________________
dropout_2 (Dropout)          (None, 16, 16, 600)       0         
_________________________________________________________________
max_pooling2d_2 (MaxPooling2 (None, 8, 8, 600)         0         
_________________________________________________________________
conv2d_3 (Conv2D)            (None, 8, 8, 900)         2160900   
_________________________________________________________________
dropout_3 (Dropout)          (None, 8, 8, 900)         0         
_________________________________________________________________
max_pooling2d_3 (MaxPooling2 (None, 4, 4, 900)         0         
_________________________________________________________________
conv2d_4 (Conv2D)            (None, 4, 4, 1200)        4321200   
_________________________________________________________________
dropout_4 (Dropout)          (None, 4, 4, 1200)        0         
_________________________________________________________________
max_pooling2d_4 (MaxPooling2 (None, 2, 2, 1200)        0         
_________________________________________________________________
conv2d_5 (Conv2D)            (None, 2, 2, 1500)        7201500   
_________________________________________________________________
dropout_5 (Dropout)          (None, 2, 2, 1500)        0         
_________________________________________________________________
max_pooling2d_5 (MaxPooling2 (None, 1, 1, 1500)        0         
_________________________________________________________________
conv2d_6 (Conv2D)            (None, 1, 1, 1800)        10801800  
_________________________________________________________________
dropout_6 (Dropout)          (None, 1, 1, 1800)        0         
_________________________________________________________________
flatten_1 (Flatten)          (None, 1800)              0         
_________________________________________________________________
dropout_7 (Dropout)          (None, 1800)              0         
_________________________________________________________________
dense_1 (Dense)              (None, 100)               180100    
=================================================================
Total params: 25,394,500
Trainable params: 25,394,500
Non-trainable params: 0
_________________________________________________________________
Epoch 1/10
2018-02-14 14:20:04.140952: I tensorflow/core/platform/cpu_feature_guard.cc:137] Your CPU supports instructions that this TensorFlow binary was not compiled to use: SSE4.1 SSE4.2 AVX AVX2 FMA
…
