…
/home/cs4li/tensorflow/lib/python3.5/site-packages/h5py/__init__.py:36: FutureWarning: Conversion of the second argument of issubdtype from `float` to `np.floating` is deprecated. In future, it will be treated as `np.float64 == np.dtype(float).type`.
  from ._conv import register_converters as _register_converters
Using TensorFlow backend.
train data shape: (50000, 32, 32, 3)
50000 train samples
_________________________________________________________________
Layer (type)                 Output Shape              Param #   
=================================================================
conv2d_1 (Conv2D)            (None, 32, 32, 96)        2688      
_________________________________________________________________
conv2d_2 (Conv2D)            (None, 32, 32, 96)        83040     
_________________________________________________________________
conv2d_3 (Conv2D)            (None, 32, 32, 96)        83040     
_________________________________________________________________
conv2d_4 (Conv2D)            (None, 16, 16, 192)       166080    
_________________________________________________________________
dropout_1 (Dropout)          (None, 16, 16, 192)       0         
_________________________________________________________________
conv2d_5 (Conv2D)            (None, 16, 16, 192)       331968    
_________________________________________________________________
conv2d_6 (Conv2D)            (None, 16, 16, 192)       331968    
_________________________________________________________________
conv2d_7 (Conv2D)            (None, 8, 8, 192)         331968    
_________________________________________________________________
dropout_2 (Dropout)          (None, 8, 8, 192)         0         
_________________________________________________________________
conv2d_8 (Conv2D)            (None, 8, 8, 192)         331968    
_________________________________________________________________
conv2d_9 (Conv2D)            (None, 8, 8, 192)         37056     
_________________________________________________________________
conv2d_10 (Conv2D)           (None, 8, 8, 100)         19300     
_________________________________________________________________
global_average_pooling2d_1 ( (None, 100)               0         
_________________________________________________________________
activation_1 (Activation)    (None, 100)               0         
=================================================================
Total params: 1,719,076
Trainable params: 1,719,076
Non-trainable params: 0
_________________________________________________________________
Epoch 1/10
2018-02-14 16:40:11.589522: I tensorflow/core/platform/cpu_feature_guard.cc:137] Your CPU supports instructions that this TensorFlow binary was not compiled to use: SSE4.1 SSE4.2 AVX AVX2 FMA
…
